…
'stable_baselines3.common.buffers.DictRolloutBuffer'>", 'rollout_buffer_kwargs': '{}', 'batch_size': 64, 'n_epochs': 10, 'clip_range': 'FloatSchedule(ConstantSchedule(val=0.2))', 'clip_range_vf': 'None', 'normalize_advantage': 'True', 'target_kl': 'None', 'lr_schedule': 'FloatSchedule(ConstantSchedule(val=0.0003))', 'rollout_buffer': '<stable_baselines3.common.buffers.DictRolloutBuffer object at 0x73751b141600>', 'policy': 'MultiInputActorCriticPolicy(\n  (features_extractor): CombinedExtractor(\n    (extractors): ModuleDict(\n      (image): NatureCNN(\n        (cnn): Sequential(\n          (0): Conv2d(3, 32, kernel_size=(8, 8), stride=(4, 4))\n          (1): ReLU()\n          (2): Conv2d(32, 64, kernel_size=(4, 4), stride=(2, 2))\n          (3): ReLU()\n          (4): Conv2d(64, 64, kernel_size=(3, 3), stride=(1, 1))\n          (5): ReLU()\n          (6): Flatten(start_dim=1, end_dim=-1)\n        )\n        (linear): Sequential(\n          (0): Linear(in_features=11264, out_features=256, bias=True)\n          (1): ReLU()\n        )\n      )\n      (vars): Flatten(start_dim=1, end_dim=-1)\n    )\n  )\n  (pi_features_extractor): CombinedExtractor(\n    (extractors): ModuleDict(\n      (image): NatureCNN(\n        (cnn): Sequential(\n          (0): Conv2d(3, 32, kernel_size=(8, 8), stride=(4, 4))\n          (1): ReLU()\n          (2): Conv2d(32, 64, kernel_size=(4, 4), stride=(2, 2))\n          (3): ReLU()\n          (4): Conv2d(64, 64, kernel_size=(3, 3), stride=(1, 1))\n          (5): ReLU()\n          (6): Flatten(start_dim=1, end_dim=-1)\n        )\n        (linear): Sequential(\n          (0): Linear(in_features=11264, out_features=256, bias=True)\n          (1): ReLU()\n        )\n      )\n      (vars): Flatten(start_dim=1, end_dim=-1)\n    )\n  )\n  (vf_features_extractor): CombinedExtractor(\n    (extractors): ModuleDict(\n      (image): NatureCNN(\n        (cnn): Sequential(\n          (0): Conv2d(3, 32, kernel_size=(8, 8), stride=(4, 4))\n          (1): ReLU()\n          (2): Conv2d(32, 64, kernel_size=(4, 4), stride=(2, 2))\n          (3): ReLU()\n          (4): Conv2d(64, 64, kernel_size=(3, 3), stride=(1, 1))\n          (5): ReLU()\n          (6): Flatten(start_dim=1, end_dim=-1)\n        )\n        (linear): Sequential(\n          (0): Linear(in_features=11264, out_features=256, bias=True)\n          (1): ReLU()\n        )\n      )\n      (vars): Flatten(start_dim=1, end_dim=-1)\n    )\n  )\n  (mlp_extractor): MlpExtractor(\n    (policy_net): Sequential(\n      (0): Linear(in_features=257, out_features=64, bias=True)\n      (1): Tanh()\n      (2): Linear(in_features=64, out_features=64, bias=True)\n      (3): Tanh()\n    )\n    (value_net): Sequential(\n      (0): Linear(in_features=257, out_features=64, bias=True)\n      (1): Tanh()\n      (2): Linear(in_features=64, out_features=64, bias=True)\n      (3): Tanh()\n    )\n  )\n  (action_net): Linear(in_features=64, out_features=3, bias=True)\n  (value_net): Linear(in_features=64, out_features=1, bias=True)\n)', '_logger': '<stable_baselines3.common.logger.Logger object at 0x737508de7670>'}
2025-12-11 21:22:20,146 INFO    MainThread:79064 [sb3.py:save_model():147] [no run ID] Saving model checkpoint to models/model.zip
2025-12-11 21:22:20,248 INFO    wandb-AsyncioManager-main:79064 [service_client.py:_forward_responses():80] Reached EOF.
2025-12-11 21:22:20,248 INFO    wandb-AsyncioManager-main:79064 [mailbox.py:close():137] Closing mailbox, abandoning 1 handles.
