…
    value: 0.0001
lr_schedule:
    value: FloatSchedule(ConstantSchedule(val=0.0003))
max_grad_norm:
    value: 0.5
n_envs:
    value: 1
n_epochs:
    value: 10
n_steps:
    value: 2048
normalize_advantage:
    value: "True"
num_timesteps:
    value: 0
observation_space:
    value: 'Dict(''image'': Box(0, 255, (3, 120, 160), uint8), ''vars'': Box(-inf, inf, (1,), float32))'
policy:
    value: |-
        MultiInputActorCriticPolicy(
          (features_extractor): CombinedExtractor(
            (extractors): ModuleDict(
              (image): NatureCNN(
                (cnn): Sequential(
                  (0): Conv2d(3, 32, kernel_size=(8, 8), stride=(4, 4))
                  (1): ReLU()
                  (2): Conv2d(32, 64, kernel_size=(4, 4), stride=(2, 2))
                  (3): ReLU()
                  (4): Conv2d(64, 64, kernel_size=(3, 3), stride=(1, 1))
                  (5): ReLU()
                  (6): Flatten(start_dim=1, end_dim=-1)
                )
                (linear): Sequential(
                  (0): Linear(in_features=11264, out_features=256, bias=True)
                  (1): ReLU()
                )
              )
              (vars): Flatten(start_dim=1, end_dim=-1)
            )
          )
          (pi_features_extractor): CombinedExtractor(
            (extractors): ModuleDict(
              (image): NatureCNN(
                (cnn): Sequential(
                  (0): Conv2d(3, 32, kernel_size=(8, 8), stride=(4, 4))
                  (1): ReLU()
                  (2): Conv2d(32, 64, kernel_size=(4, 4), stride=(2, 2))
                  (3): ReLU()
                  (4): Conv2d(64, 64, kernel_size=(3, 3), stride=(1, 1))
                  (5): ReLU()
                  (6): Flatten(start_dim=1, end_dim=-1)
                )
                (linear): Sequential(
                  (0): Linear(in_features=11264, out_features=256, bias=True)
                  (1): ReLU()
                )
              )
              (vars): Flatten(start_dim=1, end_dim=-1)
            )
          )
          (vf_features_extractor): CombinedExtractor(
            (extractors): ModuleDict(
              (image): NatureCNN(
                (cnn): Sequential(
                  (0): Conv2d(3, 32, kernel_size=(8, 8), stride=(4, 4))
                  (1): ReLU()
                  (2): Conv2d(32, 64, kernel_size=(4, 4), stride=(2, 2))
                  (3): ReLU()
                  (4): Conv2d(64, 64, kernel_size=(3, 3), stride=(1, 1))
                  (5): ReLU()
                  (6): Flatten(start_dim=1, end_dim=-1)
                )
                (linear): Sequential(
                  (0): Linear(in_features=11264, out_features=256, bias=True)
                  (1): ReLU()
                )
              )
              (vars): Flatten(start_dim=1, end_dim=-1)
            )
          )
          (mlp_extractor): MlpExtractor(
            (policy_net): Sequential(
              (0): Linear(in_features=257, out_features=64, bias=True)
              (1): Tanh()
              (2): Linear(in_features=64, out_features=64, bias=True)
              (3): Tanh()
            )
            (value_net): Sequential(
              (0): Linear(in_features=257, out_features=64, bias=True)
              (1): Tanh()
              (2): Linear(in_features=64, out_features=64, bias=True)
              (3): Tanh()
            )
          )
          (action_net): Linear(in_features=64, out_features=3, bias=True)
          (value_net): Linear(in_features=64, out_features=1, bias=True)
        )
policy_class:
    value: <class 'stable_baselines3.common.policies.MultiInputActorCriticPolicy'>
policy_kwargs:
    value: '{}'
rollout_buffer:
    value: <stable_baselines3.common.buffers.DictRolloutBuffer object at 0x73751b141600>
rollout_buffer_class:
    value: <class 'stable_baselines3.common.buffers.DictRolloutBuffer'>
rollout_buffer_kwargs:
…
